 INFO - MEAN TEACHER
 INFO - subpart_data = None
 INFO - Using synthetic data = True
 INFO - ./dataset/metadata/train/weak.tsv Total file number: 1578
 INFO - ./dataset/metadata/train/unlabel_in_domain.tsv Total file number: 14412
 INFO - ./dataset/metadata/train/synthetic.tsv Total file number: 2045
 INFO - ./dataset/metadata/validation/validation.tsv Total file number: 1168
 INFO - Loading scaler from file
 INFO - CRNN(
  (cnn): CNN(
    (cnn): Sequential(
      (conv0): Conv2d(1, 64, kernel_size=(3, 3), stride=(1, 1), padding=(1, 1))
      (batchnorm0): BatchNorm2d(64, eps=0.001, momentum=0.99, affine=True, track_running_stats=True)
      (glu0): GLU(
        (sigmoid): Sigmoid()
        (linear): Linear(in_features=64, out_features=64, bias=True)
      )
      (dropout0): Dropout(p=0.5, inplace=False)
      (pooling0): AvgPool2d(kernel_size=(2, 4), stride=(2, 4), padding=0)
      (conv1): Conv2d(64, 64, kernel_size=(3, 3), stride=(1, 1), padding=(1, 1))
      (batchnorm1): BatchNorm2d(64, eps=0.001, momentum=0.99, affine=True, track_running_stats=True)
      (glu1): GLU(
        (sigmoid): Sigmoid()
        (linear): Linear(in_features=64, out_features=64, bias=True)
      )
      (dropout1): Dropout(p=0.5, inplace=False)
      (pooling1): AvgPool2d(kernel_size=(2, 4), stride=(2, 4), padding=0)
      (conv2): Conv2d(64, 64, kernel_size=(3, 3), stride=(1, 1), padding=(1, 1))
      (batchnorm2): BatchNorm2d(64, eps=0.001, momentum=0.99, affine=True, track_running_stats=True)
      (glu2): GLU(
        (sigmoid): Sigmoid()
        (linear): Linear(in_features=64, out_features=64, bias=True)
      )
      (dropout2): Dropout(p=0.5, inplace=False)
      (pooling2): AvgPool2d(kernel_size=(2, 4), stride=(2, 4), padding=0)
    )
  )
  (rnn): BidirectionalGRU(
    (rnn): GRU(64, 64, num_layers=2, batch_first=True, bidirectional=True)
  )
  (dropout): Dropout(p=0.5, inplace=False)
  (dense): Linear(in_features=128, out_features=10, bias=True)
  (sigmoid): Sigmoid()
  (dense_softmax): Linear(in_features=128, out_features=10, bias=True)
  (softmax): Softmax(dim=-1)
)
 INFO - Epoch: 0	Time 28.38	lr 1.00E-03 	weak_class_loss 0.3426 	Weak EMA loss 0.3595 	Strong loss 0.2090 	Strong EMA loss 0.2152 	Consistency weight 0.0164 	Consistency strong 5.12E-05 	Consistency weak 6.26E-05 	Loss 0.5517 	
 INFO - 
 ### Valid synthetic metric ### 

 INFO - Event based metrics (onset-offset)
========================================
…
